…
2023-02-22 10:27:08.549180: I tensorflow/core/common_runtime/gpu/gpu_device.cc:1525] Created device /job:localhost/replica:0/task:0/device:GPU:0 with 13657 MB memory:  -> device: 0, name: Tesla T4, pci bus id: 0000:5e:00.0, compute capability: 7.5
Model: "model"
_________________________________________________________________
 Layer (type)                Output Shape              Param #   
=================================================================
 input_MSA_1 (InputLayer)    [(None, 9, 768)]          0         
                                                                 
 flatten (Flatten)           (None, 6912)              0         
                                                                 
 dropout (Dropout)           (None, 6912)              0         
                                                                 
 dense_MSA_1 (Dense)         (None, 256)               1769728   
                                                                 
 dropout_1 (Dropout)         (None, 256)               0         
                                                                 
 dense_MSA_2 (Dense)         (None, 128)               32896     
                                                                 
 dropout_2 (Dropout)         (None, 128)               0         
                                                                 
 dense_MSA_3 (Dense)         (None, 16)                2064      
                                                                 
 dropout_3 (Dropout)         (None, 16)                0         
                                                                 
 dense_MSA_4 (Dense)         (None, 1)                 17        
                                                                 
=================================================================
Total params: 1,804,705
Trainable params: 1,804,705
Non-trainable params: 0
_________________________________________________________________
Epoch 1/100

Epoch 1: val_loss improved from inf to 0.46230, saving model to models/MLP_MSA_L9.h5
2703/2703 - 514s - loss: 0.4893 - acc: 0.8085 - auc: 0.2401 - val_loss: 0.4623 - val_acc: 0.8050 - val_auc: 0.3757 - 514s/epoch - 190ms/step
…
