…
2023-02-22 10:27:08.585816: I tensorflow/core/common_runtime/gpu/gpu_device.cc:1525] Created device /job:localhost/replica:0/task:0/device:GPU:0 with 13657 MB memory:  -> device: 0, name: Tesla T4, pci bus id: 0000:5f:00.0, compute capability: 7.5
Model: "model"
_________________________________________________________________
 Layer (type)                Output Shape              Param #   
=================================================================
 input_T5_1 (InputLayer)     [(None, 9, 1024)]         0         
                                                                 
 flatten (Flatten)           (None, 9216)              0         
                                                                 
 dropout (Dropout)           (None, 9216)              0         
                                                                 
 dense_T5_1 (Dense)          (None, 256)               2359552   
                                                                 
 dropout_1 (Dropout)         (None, 256)               0         
                                                                 
 dense_T5_2 (Dense)          (None, 128)               32896     
                                                                 
 dropout_2 (Dropout)         (None, 128)               0         
                                                                 
 dense_T5_3 (Dense)          (None, 16)                2064      
                                                                 
 dropout_3 (Dropout)         (None, 16)                0         
                                                                 
 dense_T5_4 (Dense)          (None, 1)                 17        
                                                                 
=================================================================
Total params: 2,394,529
Trainable params: 2,394,529
Non-trainable params: 0
_________________________________________________________________
Epoch 1/100

Epoch 1: val_loss improved from inf to 0.41818, saving model to models/MLP_t5U50_L9.h5
2703/2703 - 746s - loss: 0.4380 - acc: 0.8180 - auc: 0.4000 - val_loss: 0.4182 - val_acc: 0.8183 - val_auc: 0.5063 - 746s/epoch - 276ms/step
…
